result.pt (torch, 833780 bytes, 8 tensors)

weight f4 [4, 1, 5, 5]
000000 13 a4 93 be 18 86 95 be ec 39 57 be b4 b5 25 be
       -0.28836116 -0.29203868 -0.21018189 -0.16182595
000010 f2 3f 12 3d 5e 78 90 be 13 37 67 be d9 f5 8a be
       0.035705514 -0.28216833 -0.22579603 -0.27140692
000020 d3 8e 2f 3e d4 47 fb 3d 37 48 53 be 2d b7 6d be
       0.17144327 0.122695595 -0.20633017 -0.23214407
000030 86 da 35 3c 1e 12 29 bc e3 f0 51 3e 87 b9 56 bd
       0.011099463 -0.010319261 0.20502047 -0.052423026
000040 10 61 c0 bd 13 5c 45 3e 7b ae 9e 3e 07 28 f4 3e
       -0.09393513 0.19273405 0.30992493 0.47686788
000050 3a 44 94 3e 71 4a a3 3e 83 b6 68 3e d6 d1 e5 3e
       0.28958303 0.31892732 0.22725873 0.44886655
000060 b8 9f 55 3e d5 18 f3 3d bd 44 d5 3e 82 0b 68 3e
       0.20861709 0.11869971 0.41654006 0.2266064
000070 3a 73 8f bc 14 46 23 be e1 68 56 3e 7c 79 bd 3e
       -0.017510999 -0.15944701 0.20938446 0.37006748
000080 41 0a 21 3f c8 e3 dd 3e cf 3a a1 bb 5d 91 94 3e
       0.6290627 0.43337846 -0.0049203406 0.29017153
000090 5d 50 25 3f 7a 28 59 3f ed 9a 05 3f d3 88 e8 3e
       0.6457575 0.8482739 0.52189523 0.4541689
0000a0 85 a6 e1 3e f7 a1 28 3f 6b 87 26 3f c3 55 b9 3e
       0.44072357 0.6587214 0.6505038 0.36198243
0000b0 8a 43 84 3e f2 71 e4 3d ae ef 5e 3e 16 8a 64 3e
       0.25832778 0.11154546 0.21771118 0.223183
0000c0 db 64 cf 3e ad 45 7a 3e fd 63 a9 3e 1a 90 f6 3e
       0.40506634 0.24440642 0.33084098 0.48156816
0000d0 60 e3 37 bd 0e 52 cd bd 16 bd 4f be 80 02 ff 3e
       -0.044894576 -0.10025416 -0.20286974 0.49806595
0000e0 38 9a 26 3f 8e eb dd 3e ff 3f 65 3e f5 ef 4d be
       0.6507907 0.43343776 0.22387694 -0.20111068
0000f0 63 0b b4 3e 5c 83 bf 3e bb ef fe 3e 8f a7 72 3e
       0.35164937 0.37404907 0.49792275 0.23696731
000100 58 37 5d 3e 5c 1f 4b be c6 b0 d1 3d 50 e5 e9 3e
       0.21603143 -0.19836181 0.10238795 0.45682764
000110 1a 53 38 3f 1a 61 0b 3f 58 12 e4 bd 28 e4 e1 bd
       0.720018 0.5444504 -0.11136311 -0.110298455
000120 1a 06 99 3e 3b 1b ac 3e bc ba b5 3e e2 08 14 bd
       0.29887468 0.33614525 0.3549403 -0.036141284
000130 10 5b 92 bc 28 64 02 bc e6 c1 c9 3e 1b da 51 3e
       -0.017865688 -0.007958449 0.39405745 0.20493357
000140 fc ea c0 3e f3 fe 8b 3e 91 b1 d9 3e 07 b0 1c 3f
       0.3767928 0.27342948 0.42518285 0.61206096
000150 0c 51 5c 3e 0c b4 ac 3e a2 8a cc 3e b6 13 2b 3f
       0.21515292 0.33731115 0.39949518 0.6682695
000160 f4 39 30 3f f7 52 11 3f 05 2c dd 3e e9 4a 42 3e
       0.6883843 0.5676722 0.43197647 0.18973888
000170 85 7e 24 bd 4a 47 8c 3c 08 c7 88 3e 8a e7 b1 bd
       -0.04015972 0.017123837 0.2671435 -0.08686741
000180 ed 7f a0 be 12 52 b6 be 4e b7 dd be a0 1a 2c be
       -0.313476 -0.3560949 -0.43303913 -0.16807032

bias f4 [4]
000000 e5 d8 a1 3e df 0f b7 3d 12 ad b3 3d e3 df 97 3c
       0.3161079 0.08938574 0.08773245 0.018539375

weight f4 [8, 4, 5, 5]
000000 7b c6 23 bd 15 a0 a8 3c 4c 9e 7b bd 80 5a 35 be
       -0.039984208 0.020584146 -0.06143026 -0.17710304
000010 44 e0 f4 bc 1c ec 01 be bd 74 52 bd 1d 99 62 3d
       -0.029892094 -0.12687725 -0.05138086 0.0553218
000020 9e df ed 3c 33 76 ed 3d 74 8c 9c 3d 86 83 e4 3d
       0.029037293 0.1159481 0.07643977 0.111578986
000030 07 72 24 3e 8c 78 07 3e 60 6a d2 3d e8 9f f3 3b
       0.16059123 0.13229579 0.10274196 0.007434834
000040 fe ec ee bd f6 f0 45 be 83 3e 30 be a2 0a e1 bb
       -0.116662964 -0.193302 -0.17211346 -0.0068677226
000050 fd 8d 04 be f4 b2 4c be e5 a6 28 be 3c 8b 84 bd
       -0.12944789 -0.1999014 -0.16469915 -0.06471869
000060 63 cc 97 bd 8d f6 44 3c 6b 6d 3f be 24 2f 88 be
       -0.074120305 0.012021673 -0.18694083 -0.26598465
000070 63 7f a8 bd e4 02 18 be cf de 08 3c 0f e3 e0 bd
       -0.08227422 -0.14844853 0.008353903 -0.10980808
000080 c9 04 be be 39 9b dc be 1c 55 96 be 18 46 4b 3e
       -0.37113026 -0.43087175 -0.29361808 0.19850957
000090 a8 59 92 3e 38 98 7c 3e 71 45 7f 3e 74 71 f5 3d
       0.28584027 0.24667442 0.24928834 0.1198453
0000a0 30 bd a2 3d 79 b6 7c 3e ce 4e b0 3e 5c 71 51 3e
       0.07946241 0.24678983 0.34435123 0.204534
0000b0 40 49 03 3e 07 c2 6c be cc 5c b7 be 48 b8 90 be
       0.12820911 -0.2312089 -0.35812986 -0.28265595
0000c0 c2 24 cc bd 65 3c e0 bd cb c1 9c bd 65 49 50 be
       -0.099679485 -0.10949019 -0.076541506 -0.20340498
0000d0 fe 22 5f be 74 ad a2 bb 97 71 e4 ba 19 09 63 bb
       -0.21790692 -0.004964525 -0.0017428872 -0.0034642874
0000e0 f9 60 9b bd 19 75 6d be 8f fa 24 be 28 49 5d be
       -0.075868554 -0.231892 -0.16111206 -0.21609938
0000f0 8d 66 ad 3e 5a a2 eb 3e e0 f4 6c 3e 43 a4 b4 bc
       0.33867303 0.46022302 0.23140287 -0.022050982
000100 bc 98 a8 3d cf a8 90 bd 87 e1 8e 3e 7c 57 c0 3e
       0.08232257 -0.07063448 0.2790644 0.37566745
000110 0b 54 9d 3e cb c0 66 3e 1a 49 19 be 31 40 88 be
       0.30728182 0.22534482 -0.14969292 -0.26611474
000120 36 f8 48 be b2 e0 06 3c 53 03 c9 3d 5f 06 8e 3c
       -0.19625935 0.0082322825 0.09815087 0.017337022
000130 58 f3 09 3c 65 e6 6c 3d 66 5f 87 3d d6 80 1d 3b
       0.008419834 0.05783691 0.06609993 0.002403309
000140 e7 61 77 bd 04 cd fb bd 10 6f 85 be c5 5d b5 be
       -0.0603961 -0.12294963 -0.26061296 -0.35423103
000150 8d 6f 0c be 0d 35 0a 3e 28 e0 8c 3d 8d 45 dc 39
       -0.13714428 0.134968 0.06878692 0.0004201349
000160 e5 4e 2a 3e fd 3d 37 3e 43 27 84 3e 27 e9 91 3e
       0.16631658 0.1789474 0.25811204 0.28498194
000170 c7 0a d9 3e 53 14 c0 3e 72 56 78 3e eb 80 db 3d
       0.42391035 0.37515506 0.24251726 0.107179485
000180 6c 6c fa bc 07 fe b6 bb bc a5 90 bc 5d b9 00 be
       -0.030569278 -0.0055844816 -0.017657153 -0.1257071
000190 e2 cc af 3d d3 7b b5 3d 87 de a2 bc f6 22 ae 3c
       0.08584 0.08861508 -0.0198815 0.021256905
0001a0 dd 46 a8 bd cf 54 8f 3d cc a3 93 3b 69 86 c6 bd
       -0.08216641 0.06998598 0.00450561 -0.096936055
0001b0 95 b3 da bd 24 39 a5 bd 35 3c a6 bd da cc a9 3d
       -0.10678784 -0.08067539 -0.08116952 0.082910255
0001c0 35 a5 34 3d df 30 a1 3d 03 b9 1e 3d 54 15 34 3c
       0.044102866 0.078706495 0.03875066 0.010991413
0001d0 19 0b d9 3d de e2 2a 3e 70 24 bc 3c 6c a0 88 bb
       0.1059782 0.16688105 0.022966594 -0.0041695144
0001e0 07 29 a2 bd c2 09 9d bd 14 95 08 bd 62 36 1e bd
       -0.079179816 -0.07667877 -0.033345297 -0.038626082
0001f0 2b 77 09 be a1 87 1d bc 6b 45 93 3d 2b 73 d5 3d
       -0.13424365 -0.009614856 0.07190975 0.10422357
000200 c8 80 07 3d 3f ee 3d 3d a1 6f d1 bd 3a e9 26 be
       0.0330818 0.046369787 -0.1022637 -0.16299906
000210 32 71 44 bd 86 c7 5c be 32 d7 6d be f8 b7 94 bc
       -0.047959514 -0.21560487 -0.23226622 -0.01815413
000220 dd 83 8d be 81 6c 2c be a4 0c ed bd fe ea ea bd
       -0.27639666 -0.16838266 -0.11574677 -0.114706025
000230 8f 7c 41 3b 86 d5 99 bc 0e e8 9a 3d 6a 3a 33 3e
       0.0029523706 -0.018778574 0.07563792 0.17502752
000240 24 cb 29 3e 71 a4 2a 3e 7a 1a 1c 3e fc 04 76 3d
       0.16581398 0.16664292 0.15244475 0.060063347
000250 6e c7 aa bc 60 94 54 bd 35 f1 24 3d 0d 31 0a 3e
       -0.020847049 -0.051899314 0.040269095 0.13495274
000260 a9 ee 61 bd ee bd c0 3d 32 0e 9d 3d b7 10 73 bd
       -0.055159245 0.09411226 0.07668723 -0.059342112
000270 df 79 f4 bd 4c f1 32 be 4b 83 ca bd d3 35 67 bd
       -0.119373076 -0.1747486 -0.098883234 -0.056447815
000280 be 5c 35 be 78 39 bc bd a0 44 bc bd a8 ed 01 be
       -0.1771116 -0.09190649 -0.09192777 -0.12688315
000290 b9 db 1d bd 87 5f 6c 3e 4e 06 5f 3d 44 e7 a5 bd
       -0.038539622 0.23083316 0.054449372 -0.08100751
0002a0 28 7c b4 3d fd ef 89 3d fd 50 3d 3e 20 7c 44 3e
       0.088127434 0.06735227 0.18487926 0.19187975
0002b0 fa 1a 92 bd 70 fb 35 bc dd 8b 7a bd 77 14 22 3d
       -0.071340516 -0.011107311 -0.06116854 0.039570298
0002c0 1e a5 c2 3d 4f 34 62 3e 78 8c 93 3e 54 79 99 3e
       0.0950415 0.22090267 0.28818107 0.2997538
0002d0 de 1b eb bb 50 aa 2a 3e 6e 9d 0d 3e 85 db f4 3d
       -0.007174953 0.16666532 0.13829586 0.119559325
0002e0 9b e3 e9 bd 13 6f 4f 3b 07 5b 29 be 3e 17 9f be
       -0.114203654 0.0031651899 -0.1653863 -0.3107242
0002f0 ef 4a 94 be bc 8c b2 bc 3b 9e 6a bc cd 93 76 bc
       -0.2896342 -0.021795623 -0.014319952 -0.015049887
000300 02 d3 27 3d 02 f7 5c 3e 4c 70 57 3e bc 2d 00 3e
       0.040972717 0.21578601 0.21038932 0.12517446
000310 62 26 00 3e a4 28 50 3e 2f 3e 99 3d 14 46 d4 3d
       0.12514642 0.20328003 0.07482564 0.10364929
000320 0f f8 b8 3c 2f d5 01 bd e9 d8 9f bc 4b 5a 29 bd
       0.022579221 -0.03169745 -0.01951261 -0.041345876
000330 87 34 9f bd 5d b7 ff bd 65 38 1a be b9 1d 5b be
       -0.07773691 -0.12486146 -0.15060575 -0.21398057
000340 7d a3 2e bd 9a 48 5c bd cc 54 95 3d b9 fe 3f 3d
       -0.042636383 -0.053780176 0.07291564 0.04687378
000350 05 9c 9d 3d e7 82 e0 3d f8 6d 8b 3d 71 61 f5 3d
       0.07695774 0.10962468 0.06808084 0.11981476
000360 c1 78 92 3d 1a 03 e6 3d af fd 82 3a de f4 3d 3d
       0.07151938 0.1123106 0.0009993816 0.0463761
000370 d4 23 61 bd 20 7e 82 bd 6b 05 1a 3d 20 9e bb bc
       -0.05496581 -0.06371713 0.037602823 -0.022902548
000380 d6 c4 b5 bd 56 d3 b3 3d 32 cd 91 3e fd 18 24 3e
       -0.08875434 0.087805435 0.28476864 0.16025157
000390 a6 bb 76 3e a3 79 06 3e a4 f7 45 be 58 26 65 be
       0.2409502 0.13132338 -0.19332749 -0.22377908
0003a0 86 60 60 be 50 75 fa bc d0 31 8a 3d 4a 65 64 be
       -0.21911821 -0.030573517 0.06747782 -0.22304264
0003b0 0e 19 82 be 71 df a6 be 85 11 92 be 65 a5 c1 bc
       -0.2540974 -0.32592347 -0.2852899 -0.023638437
0003c0 f8 98 c4 3d 7e bc 19 bd 37 53 2f 3d 72 cb 5c bc
       0.09599489 -0.037533276 0.04280397 -0.0134762395
0003d0 7a f3 d4 bd 7c 11 31 3d f9 33 37 3e 25 cf 40 3e
       -0.10398002 0.043229565 0.1789092 0.1882902
0003e0 f7 7a 1c 3e da b1 ae 3d 1c bc 07 3e 95 56 2d 3e
       0.15281282 0.08530016 0.13255352 0.1692756
0003f0 21 6c 84 3e 00 88 8c 3e e6 21 8b 3e b8 c9 20 be
       0.25863746 0.2744751 0.271743 -0.1570195

bias f4 [8]
000000 15 ce b9 3d 50 ef 24 bd 0b 8e 86 3d 98 70 40 3e
       0.0907251 -0.04026729 0.06570061 0.18792951
000010 26 f8 76 3b 0c 39 bf 3d 92 fe a5 bb 36 08 01 bd
       0.003768453 0.09337053 -0.0050657475 -0.03150197

weight f4 [512, 392]
000000 bd 0f 0e bd 8a 5c 50 3d a3 7f 04 bd 01 ae f7 3b
       -0.034682978 0.050869502 -0.032348286 0.0075585847
000010 71 1c 60 bd b7 80 86 bc a4 8a a1 bc 04 89 c3 3c
       -0.054714624 -0.016418798 -0.01971943 0.023869045
000020 63 6f da 3b 2e 72 bc 3c 83 7e 42 bc cd ec f9 bc
       0.0066661104 0.023003664 -0.011870983 -0.030508423
000030 7c 39 d5 bc ff 84 19 3d c6 70 34 bd 16 59 cf 3c
       -0.026028387 0.03748035 -0.04405286 0.025311034
000040 05 86 23 3d 42 a6 14 bb 78 f6 5b 3b 6d 80 50 3d
       0.039922733 -0.0022682105 0.0033563655 0.050903726
000050 14 8a 9f 3b 1f a8 5a bd 33 36 1f 3d f8 29 67 3d
       0.004868755 -0.05338299 0.038870048 0.05643651
000060 ae fd 21 3d ae 1a 16 bd c3 e3 64 3d 6b fe 99 bb
       0.03954857 -0.036646537 0.055881273 -0.0046995184
000070 d4 a0 d4 bb 82 09 39 3d d0 7f 79 bc 33 a1 53 3c
       -0.006488899 0.045175083 -0.015228227 0.012916851
000080 17 07 48 3b 1f 0c 1a 3c 68 e7 11 3d b5 72 43 3d
       0.0030521804 0.009402304 0.035621077 0.047716815
000090 27 82 87 3d ae a2 06 bd ce eb b7 bb 78 da 37 bd
       0.066166215 -0.032869987 -0.005612827 -0.044886082
0000a0 d7 54 4f 3c 6f fc 33 3d e0 af 4e 3c bd b6 14 3d
       0.012654505 0.04394191 0.012615174 0.036307085
0000b0 40 99 5e 3c b7 c9 c5 3c c2 ca b6 bc 60 0b 37 bc
       0.013586342 0.024144037 -0.02231348 -0.011172146
0000c0 79 74 4d 3d db 5d 71 3c df d1 60 3c ed 47 54 bb
       0.050159905 0.01473185 0.013721912 -0.0032391504
0000d0 a7 9a 41 bd 3e 51 17 bb 26 b2 84 bc 07 0e 8d b9
       -0.04726663 -0.0023089196 -0.016198229 -0.00026904067
0000e0 71 2b e5 3c 53 08 05 3d a1 28 c5 3c 48 17 fc bc
       0.027974816 0.03247864 0.024067225 -0.03077282
0000f0 63 bf 8f 3c cd 03 25 39 ee cd 9d bc 59 5c dc bc
       0.017547315 0.00015737042 -0.019263234 -0.026899504
000100 10 49 1f 3b b3 81 40 bd 88 11 32 3d 94 65 a8 3c
       0.0024305023 -0.04699869 0.04347375 0.020556249
000110 08 4a 31 3d 09 21 43 3d 64 96 21 bd dd 68 1d bd
       0.043283492 0.047638927 -0.039450064 -0.038430084
000120 e5 28 77 3c 77 bc 2a 3d 2f cd 62 bd c3 86 e1 3c
       0.015085434 0.04168364 -0.05537146 0.02753008
000130 db 0e a3 b9 ef 96 11 3d b3 58 71 3c 8d 32 18 3d
       -0.0003110085 0.035544332 0.01473062 0.037157584
000140 36 81 5c bc dc 7b 99 3c f2 53 aa 3c 69 a9 60 bc
       -0.013458541 0.018735819 0.020791981 -0.0137122655
000150 40 98 9a bc 9e 89 1c 3c 95 27 01 bd 5a 40 34 3d
       -0.018871427 0.009554295 -0.03153189 0.044006683
000160 39 f6 3b bc 60 38 10 3d 6b f4 86 bc 6d f3 a7 bc
       -0.011472278 0.035210013 -0.01647397 -0.020501817
000170 eb 93 fd bc 98 4f fe bc 2e e9 57 3b 0e 97 e3 3b
       -0.030954322 -0.031043813 0.0032945382 0.0069454974
000180 6b 7b 3a bd 7f fc bf bc 68 eb 0c bd 9b e6 e7 3b
       -0.045527857 -0.02343583 -0.03440419 0.007077051
000190 53 9a e0 3c cc e2 1c bd eb ca ad b9 50 07 da bc
       0.027417338 -0.038302228 -0.00033148317 -0.026614815
0001a0 3e 21 d6 bc b3 4f 26 3d 30 d6 1b 3d ab a3 fe ba
       -0.026138898 0.04060335 0.038046062 -0.0019427439
0001b0 a0 5e e6 38 7f c6 a5 bc e4 e4 35 bd cf 9b 90 3c
       0.0001098488 -0.020236252 -0.04440774 0.01765242
0001c0 29 42 3c bd a8 4a 9d bb aa 43 25 3d b5 c7 c1 3c
       -0.045961533 -0.0048001595 0.040347733 0.023654798
0001d0 3d cd fb 3c e4 2e ba bc c1 2f 33 bd f4 bf 00 bd
       0.030737514 -0.022727437 -0.043746714 -0.03143306
0001e0 39 77 e3 bc 23 52 2f 3d cd d9 3a 3d 85 87 75 bb
       -0.02776681 0.04280294 0.045617867 -0.003746481
0001f0 95 52 a5 bc d4 dd c3 bc a2 c5 16 bc e5 ec 02 3c
       -0.02018098 -0.023909487 -0.009202393 0.00799105
000200 fa 9a e3 bc 73 0e d7 3c e6 01 68 bc 17 c4 86 3c
       -0.02778386 0.026252007 -0.014160609 0.016450925
000210 47 a3 1c bd 20 83 d0 bc c8 41 24 3c 38 df 86 bc
       -0.03824165 -0.02545315 0.010025449 -0.01646386
000220 99 57 b4 3b 00 a6 83 3c df 2b 8e bc 08 05 08 3d
       0.0055036065 0.016070366 -0.017354904 0.033207923
000230 76 73 97 3c 14 66 27 bd ea bc e6 bc 05 d6 95 bc
       0.018487673 -0.040868834 -0.028166253 -0.018290529
000240 6e 29 83 3c e1 39 06 3d 38 57 c8 bc 58 3a 08 3d
       0.016010966 0.03277004 -0.024455652 0.033258766
000250 d8 1a b1 3c 08 5e 14 3b f5 46 23 3d e6 21 3b 3d
       0.021619245 0.0022639055 0.03986259 0.045686625
000260 9e 17 ba 3c c1 4a 4b 3d 0c f6 06 bd d7 53 1c bc
       0.02271634 0.049631838 -0.032949492 -0.009541473
000270 85 b8 d5 bc c3 0d bc 3b 0f 5c c9 3c 36 60 11 3c
       -0.026088962 0.005738945 0.02458003 0.008873036
000280 f3 9c 81 3a 57 c0 b6 bb 1e a5 65 3c 56 5f 25 bc
       0.0009888693 -0.005577128 0.014016418 -0.010093531
000290 21 03 1f bd 8d 5e 8a bc fa 4e 44 3d 4c 95 2b 3d
       -0.038821343 -0.016890788 0.04792688 0.041890427
0002a0 dd c3 7a bc 73 24 22 3d 3e 6b cb 3c 45 0d 66 3d
       -0.0153054865 0.039585542 0.02483141 0.056165
0002b0 d5 b1 06 3d a3 92 c1 3c c4 78 f5 3c a2 0b 1d bc
       0.032884438 0.023629492 0.029964812 -0.009585293
0002c0 d6 4c 21 3d 61 a5 83 3d c0 92 17 3d 04 9d db bc
       0.039379917 0.06428028 0.037005186 -0.02680827
0002d0 f1 ed c7 bc c3 f3 31 3d c1 21 a7 bc 75 bb 05 bc
       -0.024405451 0.04344536 -0.020401837 -0.008162369
0002e0 3d 77 10 3d 35 8c 34 3d 05 07 fe 3a ec 10 87 3c
       0.035269964 0.044079024 0.0019380754 0.016487561
0002f0 13 34 9d 3c fd 5b 58 bc 69 52 6b bc 4c e5 45 3d
       0.01918987 -0.013205525 -0.01436291 0.048314378
000300 f6 3f 8c 3b 50 03 f4 bc 74 78 53 3c 32 c7 22 3d
       0.0042800857 -0.029786736 0.012907136 0.03974075
000310 9b dc 35 3d 17 8e 1c bb 15 2d c2 3c 26 95 31 bb
       0.04439984 -0.0023888403 0.023703137 -0.0027096956
000320 f8 fb 4d 3c 18 f4 1d 3d c0 bb c7 3c ed 2b a6 3c
       0.012572281 0.038562864 0.024381518 0.020284617
000330 8b 67 26 3c ea e4 1b bd 0a 16 2e bb 0e 38 a7 3c
       0.0101565225 -0.038060106 -0.002656343 0.020412471
000340 49 e7 ba 3c 8e cd 31 3d 79 fc cb 3c 76 9f fa 3c
       0.022815363 0.043408923 0.024900662 0.030593615
000350 e6 49 71 bc ca ef c5 3c c6 25 b6 bc 27 bf a5 3c
       -0.014727091 0.024162192 -0.022234809 0.02023275
000360 ff 14 99 3b 97 df fe bb 47 3b fb 3c ff fa 54 bc
       0.0046716924 -0.007778119 0.030667914 -0.012999295
000370 d7 6f 33 bd 3e 9e 3c bd c4 a3 6e 3b d7 08 a7 3c
       -0.04380783 -0.04604935 0.003641353 0.020389957
000380 1a 65 6a bd d3 3e 79 bb 06 00 23 3c df da 8d bc
       -0.057225324 -0.003803183 0.009948736 -0.01731628
000390 da f5 36 bd a5 d5 3a bd 2b 4a d0 3c ba b2 d3 3c
       -0.044668056 -0.045613904 0.025425991 0.02584206
0003a0 bd ff 31 bd d5 ad 70 bd a8 86 31 bd b9 33 08 bd
       -0.04345678 -0.05875953 -0.04334131 -0.03325245
0003b0 0a ff cd bc 38 96 f6 3b 05 bb 47 3d 63 28 a0 3c
       -0.025146026 0.0075252317 0.04876234 0.019550508
0003c0 40 89 97 bd 46 92 cd 3c 21 22 ec bb e2 b9 ab 3b
       -0.07399225 0.025094163 -0.007206217 0.005240665
0003d0 37 5a 8f bc 57 cd 2a bd 1a 83 b2 bc 3b 63 31 bd
       -0.017499072 -0.041699734 -0.02179103 -0.043307524
0003e0 24 43 4a bd d7 d8 85 3c da 6a fe bc 9d dd b7 3c
       -0.049380437 0.016338749 -0.03105681 0.02244454
0003f0 42 29 c5 3c 99 00 cd 3c 4e 79 21 bd a2 bf 07 bd
       0.024067525 0.025024699 -0.039422326 -0.03314174

bias f4 [512]
000000 8c bd 8e 3c 75 2d 0d bc c2 37 b3 3c b4 83 05 3c
       0.017424367 -0.008616795 0.021877173 0.008149076
000010 b7 fa 09 3d b0 49 ea 3c c4 09 11 bd db 75 20 bd
       0.033686366 0.02859959 -0.035409704 -0.039174896
000020 38 6b 27 bd f1 61 38 3c 7c 0a 9d bc a0 ad 21 bc
       -0.040873736 0.01125382 -0.019170038 -0.009868056
000030 ce 73 d5 bc e9 28 e3 bc 56 47 9d 3c ba 0b 24 3d
       -0.026056197 -0.027729468 0.019199055 0.040050246
000040 60 cd 13 bd 58 eb 24 bd 20 3e a0 39 7f 1b 38 bc
       -0.036084533 -0.040263504 0.00030563865 -0.011237024
000050 ad da c6 3b 83 32 cd 3b 55 03 26 3c 7b 7b dd 3c
       0.0060685487 0.006262125 0.01013263 0.02703642
000060 36 c5 25 bd 7f b4 49 3d c8 19 30 bd 80 3c e6 3c
       -0.040471278 0.0492444 -0.042993337 0.02810502
000070 04 df 6f ba f7 60 8c bc c7 9d c6 bc 6c 8a 2a bd
       -0.00091503584 -0.01713608 -0.024245156 -0.041635916
000080 97 72 1f 3d d7 36 5b ba 3a 4c ea bc 3e 9a 1b bd
       0.03892764 -0.0008362359 -0.0286008 -0.037988894
000090 82 88 d9 bc a8 97 e1 bc b3 b8 3c bd 2b 2b c7 bb
       -0.02655435 -0.027538136 -0.04607458 -0.006078144
0000a0 57 0a 5e bb ae e7 39 3d c6 1b 7e bc 3c 53 d3 bc
       -0.0033880675 0.045386963 -0.015509551 -0.025796525
0000b0 85 f5 e1 bc 91 61 62 bc 0c e6 bf ba 63 b8 22 bc
       -0.027582893 -0.013817207 -0.0014640703 -0.0099316565
0000c0 69 eb 59 bc 19 d3 27 bc 83 89 a9 bc f9 9e b5 bc
       -0.013300755 -0.010243201 -0.020695454 -0.02217053
0000d0 e2 b5 f9 bc 4c 64 1a bd a7 97 c8 3c 53 8c 8c 3c
       -0.030482236 -0.037693307 0.024486376 0.017156756
0000e0 ee 60 27 3d f3 75 6e 3d f0 0a 7d 3c 49 14 fe 3b
       0.040863924 0.058217954 0.015444502 0.007753883
0000f0 c5 3f 8a bc 84 93 21 3d f8 93 38 3d 40 9e 9d bc
       -0.01687611 0.039447322 0.04506299 -0.019240499
000100 d8 12 c3 bc 07 7d 84 3c 23 79 14 bc 93 34 0c bc
       -0.023812696 0.016172899 -0.009062084 -0.008557457
000110 71 1e 42 bd 00 52 47 bd 51 49 23 bc 46 65 a0 3c
       -0.047392312 -0.048662186 -0.00996621 0.019579541
000120 21 05 1b 3d 50 87 3f 3d 20 12 db 3c eb a4 15 3d
       0.03784669 0.046759903 0.026742041 0.03653423
000130 49 81 bf 3c ee b7 31 bd 03 25 f9 3c 4b 60 6a bd
       0.023377078 -0.0433883 0.030413156 -0.05722074
000140 da 78 fa 3c 68 94 1c 3d c1 a5 44 bd 62 68 fc 3c
       0.030575205 0.03822747 -0.048009638 0.030811492
000150 06 2e ce bc e7 a4 21 bd 64 fb 38 3d 18 cd 17 3d
       -0.02516843 -0.039463904 0.04516162 0.037060827
000160 85 fd 16 3d d8 0b a3 bc 3f d6 a7 3c b6 74 89 bc
       0.03686287 -0.019903108 0.020487903 -0.016779285
000170 00 ab 87 bc 5f 96 63 bc 6a 90 9c 3c ea 1c 63 3d
       -0.016561031 -0.013890832 0.01911183 0.055447496
000180 15 92 51 bd 89 d0 90 bc 02 58 92 3c 74 c2 3b bd
       -0.051164705 -0.017677562 0.017864231 -0.04583974
000190 18 32 04 3c de ce 81 bc d0 ee 3c 3d 92 c2 36 bd
       0.008068584 -0.015845712 0.046126187 -0.04461915
0001a0 82 72 e8 bc d7 9c 8c bc f3 cd 18 3d 06 d2 05 3d
       -0.028374914 -0.01716463 0.037305783 0.032670997
0001b0 a9 4d 3f 3d ce 62 a8 3c 0c 10 39 bd 5b 4c 24 bd
       0.046704922 0.020554926 -0.04518132 -0.04011188
0001c0 45 11 26 3d 54 12 92 3c d8 1f 81 bc a9 04 ed bb
       0.040543813 0.017831005 -0.015762255 -0.0072332215
0001d0 dd 14 d2 3c 11 b1 1e bd b5 d5 46 bd 2b 7e a0 bc
       0.025644714 -0.038743082 -0.04854365 -0.019591412
0001e0 c1 ca 9c bc 89 a3 ae bc fd 47 42 bd 8e 27 31 bd
       -0.01913965 -0.021318214 -0.047431935 -0.043250613
0001f0 8d eb d4 3c 9d 49 fe 3a 0c 29 0c bb 73 bb 2d 3a
       0.025991226 0.00194006 -0.002138677 0.00066273584
000200 2b f5 33 bc 82 3c 67 3b 59 d7 fd bc 9b 57 d5 3c
       -0.010983746 0.0035283868 -0.030986475 0.02604275
000210 38 75 25 3d 8b de 6c 3c 62 58 9c bc f7 47 b6 3c
       0.04039499 0.014457355 -0.019085113 0.022251112
000220 6b 30 ce bb b4 f3 07 bc 84 97 46 bc 0f d9 32 bc
       -0.006292393 -0.008297849 -0.012121085 -0.010916009
000230 ae 66 0d 3d 5c 50 9b bc 83 33 ba bb 65 05 07 bd
       0.03452175 -0.018959217 -0.00568241 -0.03296413
000240 1f 76 91 bb 7e 17 68 3d 34 01 30 3d 4e e9 89 bc
       -0.00443913 0.05666303 0.042969897 -0.016834881
000250 97 0b 2b 3d fa 2b f1 bb be 91 a4 3c 00 ed 0a bb
       0.0417591 -0.0073599787 0.020089027 -0.0021198392
000260 f2 08 82 bc cb 16 c9 bc 62 be 22 38 84 b7 19 3c
       -0.015873406 -0.024547001 3.8801118e-05 0.009382132
000270 aa f0 14 3d 1c 66 01 3d fc ea 91 3b 9f 6c eb 3c
       0.036362328 0.03159152 0.004453061 0.028738318
000280 b3 e5 0a bc 59 70 b8 3b f4 60 4a bc c6 0d 7e 3c
       -0.008477616 0.0056286273 -0.012352217 0.0155062135
000290 a2 4c 23 bd 13 bf 9e 3a eb ff 96 bb 9d c3 59 bc
       -0.039868005 0.0012111388 -0.0046081445 -0.013291267
0002a0 ed b2 22 bd 69 bd 9e 3c 48 f3 94 bc 4d 43 e0 bc
       -0.03972142 0.019377427 -0.018182412 -0.027375842
0002b0 b2 0c 05 bd 21 6b f7 3c 28 a5 3e bd 9f d0 46 3b
       -0.03248281 0.03020245 -0.046544224 0.003033675
0002c0 0c aa 9c bc 48 f7 a3 3c b7 e9 a3 3b bb 91 33 bd
       -0.019124053 0.020015374 0.005002226 -0.04384015
0002d0 c5 99 89 bc 65 8c b3 3c f3 14 33 3d f8 ab de 3b
       -0.016796956 0.021917531 0.04372115 0.0067954026
0002e0 80 a9 1c bc 20 c3 92 3c 33 94 1c bd b8 3e 42 bd
       -0.009561896 0.017915308 -0.03822727 -0.047423095
0002f0 b6 80 ad 3c d3 ff 53 bd 84 12 a4 3c 17 7d f6 bc
       0.021179538 -0.051757645 0.02002836 -0.030088944
000300 99 c4 ef bc c7 13 2f bd 57 25 82 bc d7 fb d6 3c
       -0.02926855 -0.04274347 -0.015886946 0.026243133
000310 68 2b 5e 3d 2d 2d be 3c 53 81 f6 bc a0 24 27 bd
       0.054240614 0.0232149 -0.030090963 -0.040806413
000320 97 43 07 bc 20 af 38 bd 89 32 1c bd 37 0c d8 bc
       -0.008255861 -0.045088887 -0.03813413 -0.026373012
000330 fd ec dc 3c 9c b0 c5 bc 53 b2 7f 3c b5 3a 11 3d
       0.026968474 -0.024132065 0.015606481 0.035456378
000340 0f ce 01 3d c2 96 82 bb c8 5d 00 bd 8a 5c d5 bc
       0.031690653 -0.003985257 -0.031339437 -0.026045103
000350 85 8a 2d 3c c9 fd e0 3c 1a a3 33 bd 59 0f 9d bc
       0.010592108 0.027464764 -0.043856718 -0.019172357
000360 57 7d 8d bc 70 e3 11 3d 76 f7 59 3d 80 ae cb bc
       -0.01727168 0.035617292 0.053214513 -0.024863482
000370 20 c2 46 3c d6 0c 3c bd 57 e2 28 3d dc 8e e3 3c
       0.012131244 -0.04591068 0.04123148 0.027778082
000380 1e cd 21 bc d3 42 15 3d 3b cf 9d 39 6e d2 d3 bb
       -0.009875564 0.03644068 0.00030099772 -0.006464294
000390 b1 74 91 3c 93 b2 3a bd b2 cc 52 bc 8d d0 cc bc
       0.017755838 -0.045580458 -0.012866186 -0.025001789
0003a0 09 da 08 bd d7 e3 c4 3c 73 4c fb 3b 82 17 f8 3c
       -0.03341106 0.024034424 0.0076690256 0.030284647
0003b0 73 00 b0 3c d6 d0 05 3d 03 c7 fb bc a4 eb 64 bb
       0.02148459 0.032669865 -0.030734545 -0.0034930492
0003c0 7b 41 24 3d 93 dc f5 bc 48 e7 10 3d 23 32 3a 3b
       0.04010151 -0.030012405 0.035376817 0.0028411231
0003d0 d0 b0 13 bb 3c c8 56 3c e6 7e cb 3c bf a6 00 3c
       -0.0022535808 0.013109263 0.024840783 0.007852255
0003e0 a6 73 2e bd 4a 80 71 bc 31 d8 09 3c 23 4c 93 bc
       -0.04259076 -0.014740059 0.00841336 -0.01798064
0003f0 ff 66 0e 3c 82 d9 ee 3b 20 4c a8 bc 65 b7 d2 bc
       0.008691548 0.0072891125 -0.020544112 -0.025722215

weight f4 [10, 512]
000000 d4 6f be bd 04 65 07 bd 0b c6 85 bd ff 1a 23 3d
       -0.09298673 -0.03305532 -0.06531914 0.039820667
000010 36 07 53 3d 00 3f d6 3d ba b1 b9 bc 4b 51 95 ba
       0.05152055 0.10461235 -0.022667754 -0.0011392025
000020 94 61 ce bc 06 64 bd bc ac d5 c7 3c 2f 29 7f bd
       -0.025193013 -0.023118984 0.024393879 -0.062295135
000030 fe 23 cf bd 8b d2 5b bd 85 7e 0f 3d df 69 ff ba
       -0.10114287 -0.053667586 0.035032768 -0.0019486508
000040 81 b3 27 bd ff 48 0e be 1b 6d a5 bb 4a 7b d5 3b
       -0.040942673 -0.13895033 -0.005048407 0.0065149413
000050 ed b5 48 bb 0c f2 4b bd 0d 6e b9 bb 00 3d fe 3c
       -0.0030626014 -0.04979138 -0.005658871 0.031034946
000060 6f fd b8 3d 9c 71 e6 3c e3 cb 5b 3d 89 60 71 bd
       0.090327136 0.028130345 0.05366124 -0.058929954
000070 0d b0 6e 3d 08 7e 4e bd 36 36 11 3d 89 77 a0 bd
       0.058273364 -0.05041316 0.03545209 -0.078352995
000080 18 ce 80 3d 2b 7f 90 3d 22 76 81 3c 1b b3 2a bc
       0.06289309 0.07055505 0.0158034 -0.010418679
000090 58 e1 88 3d 3a fb fa bc e8 db b1 b8 85 c2 3b 3d
       0.06683606 -0.030637372 -8.4809784e-05 0.045839805
0000a0 bf e8 41 bd 95 88 18 3d 4a a8 30 3d cc 66 e6 3d
       -0.047341105 0.03723963 0.043129243 0.11250076
0000b0 c2 92 2b bc 8c 6b ab 3c e1 c8 0b 3b d0 fe 8a 3d
       -0.0104720015 0.020925306 0.002132945 0.06786883
0000c0 60 b5 11 3a 23 9a cd 3c dc 96 2d bd d3 2e 1b bd
       0.0005558338 0.025097912 -0.0423802 -0.037886452
0000d0 c7 71 4e bc be 91 de 3c fd 07 d0 bc dc ef 49 bc
       -0.012600369 0.027169105 -0.025394434 -0.012325253
0000e0 f9 43 a4 bd 2f 11 53 bd bd 6e 9d bd 3f 63 82 3c
       -0.08020777 -0.05153006 -0.07687137 0.015916465
0000f0 4d e8 61 3d 6d 73 b3 3d 41 a5 b5 3d a8 e4 b6 bb
       0.05515318 0.0876225 0.0886941 -0.005581457
000100 c0 b7 1f 3d 4e 9e 89 3c c2 57 ad bb c6 e1 ae 3c
       0.038993597 0.016799118 -0.0052900026 0.021347892
000110 ca b1 c5 bc ec 7a 46 bd cb bf 70 3c 09 a7 17 3d
       -0.024132628 -0.04845707 0.0146941645 0.03702453
000120 a4 bf 24 bd 5f 0e 97 3c 77 57 fb 3c 47 02 46 bc
       -0.040221825 0.01843947 0.030681355 -0.012085504
000130 45 e3 41 bc 26 22 83 3c e4 7e 0e bd 8f b3 91 3d
       -0.01183397 0.016007494 -0.03478898 0.07114326
000140 02 a1 9d bd 1e ed e9 bd de d5 10 be 2b e6 c3 bc
       -0.076967254 -0.1142218 -0.14144084 -0.023913464
000150 9d 5e 46 3d 94 51 d9 3b 2d 18 1c 3d 27 9d ba 3d
       0.048430074 0.0066320393 0.038108993 0.09112006
000160 5d e0 a0 3d d0 16 79 3d 5b e9 9a bd 79 73 9c bd
       0.07855294 0.06081277 -0.0756404 -0.07639212
000170 15 14 af bd 16 9b 30 bd ad 59 fa 3c 96 3e ee 3c
       -0.08548752 -0.04311665 0.030560339 0.029082578
000180 b1 18 61 bc 49 c3 19 3c ed dc 83 3d c0 29 79 bc
       -0.013738797 0.0093849385 0.064386226 -0.015207708
000190 27 84 70 bd aa 44 51 bd a8 8e dc bd bb b1 ca 39
       -0.05871978 -0.051090874 -0.10769397 0.00038660862
0001a0 c4 a7 e4 bb 8c c2 2b 3d 24 0d fe 3c bc f9 77 3d
       -0.006978007 0.04193358 0.031012125 0.0605409
0001b0 1d d4 8c bd 21 43 2f bd d2 19 a1 3d 74 b8 c0 3d
       -0.06876395 -0.04278863 0.07866253 0.09410182
0001c0 e2 f5 50 3d 1e fd f3 ba ac 20 46 3d e2 a9 2c bd
       0.051015742 -0.0018614864 0.048371002 -0.0421542
0001d0 a7 4c 54 bd 1e 97 3f bc 77 43 67 3b 07 db ed bc
       -0.051830914 -0.011693744 0.0035288015 -0.029035104
0001e0 bf 4a 5f 3d f9 5a ac bc 7a b1 dd 3c 67 a4 b5 3b
       0.054514643 -0.021039473 0.027062166 0.00554328
0001f0 97 e6 61 3d 6e 8d 36 3c e2 e1 9d 3d 0f ba 48 3d
       0.05515155 0.011142118 0.07709099 0.049005564
000200 6a fb 01 3d c5 bc 9d bd 79 4f de 3b 1d 1a 1e bd
       0.031733908 -0.077020206 0.006784376 -0.038599122
000210 ec 94 7e 3d 2a 78 80 3d 76 21 44 bc 13 19 d2 bc
       0.06215374 0.062729195 -0.011970868 -0.025646722
000220 a5 73 c9 3b 85 35 dc 3c 2a e7 2c 3c 26 69 97 bd
       0.006147819 0.026880989 0.010553161 -0.07393102
000230 b8 da 91 bd e0 7b c4 3d 9d ec 19 3d ac c2 eb 3d
       -0.071217954 0.0959394 0.037579168 0.1151174
000240 87 99 e4 3c 02 48 4f bd 2b 8a 9d 3c b5 24 4f bd
       0.027905239 -0.05060578 0.019230923 -0.050572116
000250 79 01 5e 3b 44 b2 91 3d 4a 38 5e 3d 29 6d 06 bd
       0.003387539 0.071140796 0.0542529 -0.032818947
000260 2e 80 a7 3d ea 6a 90 bd 41 a5 4d 3d 0d f2 10 3d
       0.08178745 -0.07051642 0.050206427 0.035387088
000270 81 98 25 be 73 92 ad 3c 69 4e a1 bc c8 95 4a 3d
       -0.16171457 0.021187996 -0.01969071 0.04945925
000280 42 98 90 bd 31 7a bd bd 77 75 3f 3d 73 f5 36 bd
       -0.07060291 -0.09251822 0.046742883 -0.044667672
000290 b5 aa 85 bd 0a 74 6f 3b 83 6e bb 3c 61 66 c2 3d
       -0.065267004 0.003653767 0.022879845 0.094921835
0002a0 0e c7 bf bc 39 47 83 bd db 1d 72 3c c5 74 f4 3c
       -0.023410346 -0.06410069 0.014777626 0.029840836
0002b0 6d be 04 3c ca 98 77 3c d6 5e a2 bd aa 6c b0 3d
       0.008102042 0.015112111 -0.07928245 0.08614476
0002c0 fb f3 10 3d a1 26 c2 3d 81 40 34 3d aa bb 64 bd
       0.035388928 0.09480024 0.04400683 -0.055843033
0002d0 0d f2 a8 3d da e9 c1 3c ef 05 b3 3c ff 45 4d bd
       0.082492925 0.02367108 0.021853415 -0.05011558
0002e0 6d 90 ed 3c d0 9c 19 bd ee 02 40 3d 93 1d b2 bd
       0.028999532 -0.037503064 0.046877794 -0.08697047
0002f0 4b 7d 16 3d cf 16 bb 3c 44 00 8a 3d 51 dc a4 3d
       0.036740582 0.022838024 0.06738332 0.080498345
000300 44 cb 6c 3c 7c 5e b8 bd a5 59 2e bc f5 03 7d 3b
       0.014452759 -0.090023965 -0.01064149 0.0038607095
000310 35 1a b9 3b 3f 35 b0 bb 68 0e 80 3b 8c e5 e7 3b
       0.005648876 -0.005377441 0.0039079674 0.0070769247
000320 d6 88 8e 3c e0 2f 13 bd 28 63 97 3c f3 14 78 bb
       0.017399233 -0.03593433 0.018479899 -0.0037854284
000330 12 a9 3d 3d f3 b8 a8 3d d2 29 0a 3d 31 7d 09 3d
       0.046303816 0.08238401 0.03373129 0.033566657
000340 5b 0b 50 3d f5 5d 14 bc 65 65 13 bc 01 c9 8f 3b
       0.05079208 -0.009055604 -0.008996342 0.004387975
000350 0f 01 96 bd f4 d1 a5 bc 4a a1 a4 3d fd 08 9c 3d
       -0.07324421 -0.020241715 0.08038576 0.07618902
000360 ce 5f 01 bd 5b 87 07 be 60 c3 8c bd d7 89 d9 bc
       -0.031585507 -0.13235228 -0.06873202 -0.026554985
000370 4c a3 21 3d 58 da 9f 3d 68 0d 8c bd 81 86 fb bc
       0.039462373 0.07805318 -0.068384945 -0.030703785
000380 74 28 04 3a 18 cd f9 bd e1 ef 7b bd 2c 86 18 3d
       0.00050414284 -0.12197322 -0.061508063 0.03723733
000390 72 1d 4a bd a3 bb c8 bd 0d de a4 3d 32 04 13 bd
       -0.049344487 -0.09801414 0.08050165 -0.035892673
0003a0 9c bb 5d bb 8e da 92 bb 06 fe 54 3c 7b 6d 93 bb
       -0.0033833748 -0.00448162 0.013000017 -0.004499135
0003b0 d9 79 cb 3c ce 27 0e bc 2d 03 9e bb 81 66 6c bc
       0.024838375 -0.008676482 -0.004822156 -0.014428736
0003c0 cb 5b 8d 3c 88 6a d9 bd 2c 09 72 3d 5e 7d 71 ba
       0.017255684 -0.10616022 0.05909078 -0.00092121016
0003d0 58 19 7c 3d 1a 8d aa bd 1c d3 4c bd 26 40 2b bd
       0.061547607 -0.08327694 -0.050006017 -0.041809224
0003e0 fc 3e 15 3d 28 2a 84 bd 47 bb 99 3d e5 4f 4b bd
       0.03643702 -0.06453353 0.075064234 -0.04963674
0003f0 32 a4 15 bd 20 08 8b 3d 8f 1a 88 3d 00 59 34 3d
       -0.036533542 0.06788659 0.06645691 0.04403019

bias f4 [10]
000000 3c 03 70 bd 20 11 d2 3d 27 72 07 bd 0c e0 d7 bd
       -0.058596835 0.102571726 -0.03306785 -0.105407804
000010 fb 4b d5 3c d2 9b a1 bb a8 9f 37 bd 48 64 aa bc
       0.026037207 -0.0049319053 -0.044829994 -0.020799771
000020 2e a8 35 3d 2c 6e 2a 3d
       0.04434984 0.041608974
